Pytorch/my_mnist_model.pt (torch_old, 447131 bytes, 6 tensors)

weight f4 [128, 784]
0.012204551 -0.009294544 -0.01753036 0.017551754 0.021915708 0.031883646 -0.026711524 0.030506354
-0.021805763 -0.021825042 0.022979729 0.01958983 -0.010328476 -0.020116143 0.018428558 0.0018657151
-0.01497405 0.03317694 -0.019302674 0.0012994991 0.0159175 -0.032997493 0.012818397 0.028011542
-0.007818986 -0.028287638 -0.0072778654 -0.024748392 -0.030960124 0.032707337 -0.025195345 0.0225127
-0.017790914 -0.028237917 0.034096684 0.03415572 -0.011593112 0.01355751 0.015600228 -0.01598879
0.016053805 0.0013716805 0.013890768 -0.008516178 0.01792574 -0.008333189 -0.030107431 -0.0024615787
0.0012683568 0.03510863 0.018806161 0.0002898779 0.021150406 -0.008719855 0.019729838 -0.030130185
0.029962841 0.033824127 0.0032909345 -0.0034962674 0.032665987 0.029390005 0.0026323001 -0.014725764
0.028856205 -0.019224247 0.030540917 0.014689021 -0.036196005 -0.0067560333 -0.032046504 -0.031871818
-0.0129212085 -0.034733046 -0.0012444177 -0.0063451026 0.013976158 -0.0052648336 0.00975883 -0.008942363
-0.0052808034 -0.023693347 0.008009544 0.0019675912 0.010951654 0.01463401 0.03462471 0.011181363
-0.035758354 0.010631443 -0.023362348 -0.012463592 -0.017428344 0.027194167 -0.018973045 -0.028606994
0.019507991 -0.032545887 0.029983401 -0.023781715 0.00079103594 -0.01685035 -0.034438603 -0.013165656
-0.0030920403 0.021353135 -0.020355016 0.0075302776 -0.03204802 -0.03380316 0.010082421 -0.009322894
-0.0041824174 -0.03142998 0.008673941 -0.010796118 0.01631698 0.031503133 -0.017099053 0.011642872
0.013830925 0.011914977 0.01014158 -0.033252332 0.017034652 0.03396341 0.045425445 0.015165401
0.02031272 0.026724456 0.0074478975 0.021519914 0.02009682 -0.0008439708 -0.025405392 0.013904968
-0.007943108 0.025837997 -0.029733358 0.009715238 0.033008162 0.02505951 -0.025862355 -0.035328694
-0.0028510315 -0.0018251609 -0.026106147 -0.008112273 0.006755519 0.002640437 0.011893698 -0.0058331043
-0.014893213 0.030872887 0.0030623628 0.03323722 0.010103224 -0.027172629 -0.037462264 -0.030914
-0.0076693315 -0.04894225 -0.011505087 0.0019380292 -0.02259993 0.017501634 0.02147565 -0.012741958
-0.006134013 0.020492457 -0.020852316 0.025631798 0.022984687 -0.027902562 -0.0152385775 -0.050316285
0.014344701 -0.057870563 -0.008922195 0.02548476 -0.026573477 -0.021927936 -0.0059579923 -0.06840922
-0.020533988 -0.047605384 -0.028247867 -0.055378437 -0.050541755 0.0002575483 0.024892949 -0.010455242
-0.037575252 0.021585451 -0.008927914 0.017922228 -0.0016865912 -0.0116670085 0.036703177 -0.0011387841
-0.0012544055 -0.028923647 0.019285252 -0.017126918 -0.04326075 0.015728451 0.026073718 -0.020484805
0.0014725861 -0.043050516 -0.056773078 -0.0908148 -0.012249826 -0.009957533 -0.037964456 -0.057454087
-0.041697685 0.0029616524 -0.029168101 0.03306518 -8.06101e-05 0.013187857 0.0033429519 -0.003139793
0.017922083 -0.017235123 0.034547504 -0.016774356 -0.009002667 0.022814859 0.039247476 -0.023980064
0.020190498 -0.0017988808 0.017026432 0.040372502 0.025145007 -0.0061473735 -0.048714854 -0.07591582
-0.010959078 -0.0070195436 -0.015097357 -0.04531352 -0.037317947 -0.025642546 0.00074983365 0.046956886
0.03507775 0.0085254675 -0.018977454 -0.008257144 0.003303059 0.03360423 0.024182081 -0.009703283
00000000: 99f5 473c 2548 18bc d49b 8fbc b2c8 8f3c
00000010: 9288 b33c 6d98 023d 20d2 dabc 76e8 f93c
00000020: 00a2 b2bc 6eca b2bc fc3f bc3c da7a a03c
00000030: c538 29bc 9cca a4bc 7df7 963c 038b f43a
00000040: b855 75bc 8be4 073d a420 9ebc f453 aa3a
00000050: 6b65 823c 6128 07bd 4104 523c 7678 e53c
00000060: 341b 00bc 7abb e7bc 297b eebb 24bd cabc
00000070: 16a0 fdbc 21f8 053d 7866 cebc 8e6c b83c
00000080: 40be 91bc 3453 e7bc f7a8 0b3d dee6 0b3d
00000090: 09f1 3dbc 5220 5e3c 1998 7f3c ecfa 82bc
000000a0: 4583 833c f6c9 b33a 1b96 633c 7087 0bbc
000000b0: 00d9 923c ee87 08bc dca3 f6bc 7052 21bb
000000c0: fe3e a63a 11ce 0f3d 610f 9a3c c1fa 9739
000000d0: 9e43 ad3c b9dd 0ebc 78a0 a13c 94d3 f6bc
000000e0: a274 f53c 2b8b 0a3d b8ac 573b a221 65bb
000000f0: c5cc 053d 4fc3 f03c ab82 2c3b 5544 71bc
00000100: d963 ec3c 2b7c 9dbc f230 fa3c 38aa 703c
00000110: 4342 14bd b761 ddbb 3243 03bd 068c 02bd
00000120: 7ab3 53bc 3d44 0ebd bb1b a3ba 94ea cfbb
00000130: 41fc 643c a084 acbb 80e3 1f3c fd82 12bc
00000140: 970a adbb 8d18 c2bc 763a 033c b4f2 003b
00000150: 916e 333c 7dc3 6f3c a4d2 0d3d 0932 373c
00000160: 5a77 12bd 812f 2e3c 6562 bfbc 1834 4cbc
00000170: e3c5 8ebc 4dc6 de3c 5c6d 9bbc 3759 eabc
00000180: 39cf 9f3c d64e 05bd c09f f53c dfd1 c2bc
00000190: 865d 4f3a bf09 8abc 7e0f 0dbd c3b4 57bc
000001a0: d4a3 4abb c5ec ae3c 90bf a6bc 8cc0 f63b
000001b0: c944 03bd 2f75 0abd bd30 253c 0dbf 18bc
000001c0: a90c 89bb b9bc 00bd 251d 0e3c 33e2 30bc
000001d0: 30ab 853c 6e09 013d 5013 8cbc bfc1 3e3c
000001e0: 1b9b 623c 0937 433c df28 263c 9933 08bd
000001f0: 418c 8b3c 371d 0b3d 0810 3a3d 4d78 783c
00000200: dd66 a63c 3fed da3c 7e0d f43b 884a b03c
00000210: 16a2 a43c ec3d 5dba f81e d0bc aad1 633c
00000220: cf23 02bc 35aa d33c 5f93 f3bc a92c 1f3c
00000230: 9133 073d 9a49 cd3c 4add d3bc d2b4 10bd
00000240: 5fd8 3abb 3d3a efba 8fdc d5bc 57e9 04bc
00000250: 675d dd3b 2f0b 2d3b c9dd 423c a023 bfbb
00000260: aa02 74bc 23e9 fc3c ecb1 483b c023 083d
00000270: fe87 253c 2299 debc 0872 19bd 5b3f fdbc
00000280: 044f fbbb ab77 48bd d57f 3cbc 7805 fe3a
00000290: 7d23 b9bc 965f 8f3c b4ed af3c a5c3 50bc
000002a0: d5ff c8bb ccdf a73c 7ad2 aabc c7f9 d13c
000002b0: 624a bc3c ea93 e4bc 3aab 79bc 7318 4ebd
000002c0: 0906 6b3c af09 6dbd 662e 12bc 6ac5 d03c
000002d0: 9fb0 d9bc 37a2 b3bc 433b c3bb 221a 8cbd
000002e0: e536 a8bc ddfd 42bd 1268 e7bc 80d4 62bd
000002f0: df04 4fbd 8c07 8739 4cec cb3c 774c 2bbc
00000300: 82e8 19bd f9d3 b03c 6346 12bc a3d1 923c
00000310: 9c10 ddba fb26 3fbc 1256 163d 4143 95ba
00000320: dd6a a4ba 49f1 ecbc 1bfc 9d3c c04d 8cbc
00000330: 2f32 31bd f4d8 803c 8d98 d53c c0cf a7bc
00000340: ca03 c13a bd55 30bd e38a 68bd 1cfd b9bd
00000350: 7fb3 48bc ec24 23bc 9e80 1bbd fa54 6bbd
00000360: 31cb 2abd 4818 423b f1f1 eebc 5b6f 073d
00000370: 380d a9b8 e211 583c 6d15 5b3b fcc4 4dbb
00000380: 55d1 923c ac30 8dbc af81 0d3d 606a 89bc
00000390: ec7f 13bc 3ae6 ba3c f6c1 203d d771 c4bc
000003a0: 8b66 a53c 6cc8 ebba 047b 8b3c a35d 253d
000003b0: e7fc cd3c e86f c9bb 3a89 47bd c179 9bbd
000003c0: b48d 33bc 3304 e6bb e85a 77bc ab9a 39bd
000003d0: b4da 18bd 5110 d2bc 7c90 443a dd55 403d
000003e0: b0ad 0f3d 67ae 0b3c 9b76 9bbc f948 07bc
000003f0: 2278 583b 97a4 093d 8019 c63c 85fa 1ebc

bias f4 [128]
-0.011031705 0.011353048 0.028472355 -0.00040493353 -0.036061604 -0.042759534 0.014234487 0.019962808
0.029167553 -0.015519276 -0.00038815313 0.022457251 0.022032231 0.03149862 -0.006614546 -0.016308114
0.021191744 0.0050659496 0.026374435 -0.029752681 -0.030876376 -0.016349318 -0.0025720617 0.023749007
0.022329837 -0.007661189 0.0049352665 -0.005076425 0.0021906854 -0.0049137375 -0.02986816 -0.019345747
-0.0008896019 -0.00088614225 -0.004143694 0.0060183248 0.022283664 -0.0041441494 0.006532612 -0.01751596
-0.026759084 -0.014468641 0.020006588 0.0024307985 0.0025794567 0.004304445 -0.026277546 -0.0023747373
0.03654043 -0.002590958 -0.008446547 -0.019399187 0.024663923 -0.012636287 0.034712583 0.02842857
0.004129381 0.021898987 0.01874757 0.017267745 -0.017604189 0.016470442 0.037341174 -0.0059140385
-0.010211061 -0.02491297 0.0319122 0.027101979 -0.02327095 -0.036493316 -0.02089674 -0.04067129
0.033140767 0.007744932 0.033526216 -0.0064648087 -0.019761276 0.029273769 -0.0072726076 -0.004902288
0.035201006 0.017604813 0.0056669167 -0.013404725 -0.01091061 -0.0068616797 0.03207481 0.034769196
-0.0229461 -0.034731373 0.012714864 0.02965997 0.0014655732 0.014771662 -0.013802567 -0.003370715
0.03402249 -0.0063358266 -0.023388937 0.015002626 0.0015954595 -0.018988656 -0.030026892 -0.013467242
0.0064222184 -0.025877325 0.0027899558 0.010810042 0.007353848 -0.035743527 -0.016263489 0.021344872
-0.00797346 0.006120575 -0.027504686 -0.01422817 -0.018628964 0.023362681 0.0006120471 0.038918674
0.005695363 0.031093622 -0.024613857 -0.012282183 -0.018884864 -0.0153437825 0.018753003 0.0008289813
00000000: 53be 34bc 2202 3a3c db3e e93c 424d d4b9
00000010: 55b5 13bd 9f24 2fbd c437 693c 0b89 a33c
00000020: cbf0 ee3c 9044 7ebc 0881 cbb9 45f8 b73c
00000030: f07c b43c b204 013d d5be d8bb 9898 85bc
00000040: 4f9a ad3c 4400 a63b 330f d83c e5bb f3bc
00000050: 74f0 fcbc 01ef 85bc 0990 28bb 478d c23c
00000060: 10ed b63c b60a fbbb 04b8 a13b 2458 a6bb
00000070: 9a91 0f3b 6b03 a1bb 12ae f4bc f97a 9ebc
00000080: 2c34 69ba 004c 68ba d3c7 87bb 5e35 c53b
00000090: 3b8c b63c a5cb 87bb 850f d63b a17d 8fbc
000000a0: de35 dbbc e10d 6dbc dbe4 a33c 084e 1f3b
000000b0: 1a0c 293b 4d0c 8d3b 0244 d7bc 7ba1 1bbb
000000c0: 6bab 153d 10cd 29bb 6363 0abc 0beb 9ebc
000000d0: ff0b ca3c 6e08 4fbc c82e 0e3d 08e3 e83c
000000e0: c24f 873b 8165 b33c 8194 993c 1675 8d3c
000000f0: a936 90bc 05ed 863c 0ff3 183d 8dca c1bb
00000100: 4b4c 27bc 4916 ccbc 5eb6 023d f804 de3c
00000110: b8a2 bebc 047a 15bd a42f abbc f096 26bd
00000120: 9dbe 073d 33c9 fd3b c952 093d bfd6 d3bb
00000130: 66e2 a1bc 8bcf ef3c 0e4f eebb 5fa3 a0bb
00000140: ee2e 103d f837 903c 8bb1 b93b 7e9f 5bbc
00000150: 6ac2 32bc f1d7 e0bb e060 033d 256a 0e3d
00000160: 76f9 bbbc 7c42 0ebd 0152 503c 77f9 f23c
00000170: 7a18 c03a d704 723c 2924 62bc 37e7 5cbb
00000180: 2b5b 0b3d c49c cfbb 289a bfbc 93cd 753c
00000190: bd1e d13a 198e 9bbc f5fa f5bc b5a5 5cbc
000001a0: 7971 d23b affc d3bc b1d7 363b 9a1c 313c
000001b0: 8cf8 f03b ce67 12bd 023b 85bc 71db ae3c
000001c0: 1da3 02bc 1b8f c83b 8251 e1bc 451d 69bc
000001d0: c59b 98bc 1863 bf3c c971 203a 3069 1f3d
000001e0: 2ba0 ba3b 0db8 fe3c 00a3 c9bc 363b 49bc
000001f0: 6eb4 9abc 7d64 7bbc e69f 993c fe4f 593a

weight f4 [64, 128]
-0.07242595 0.051615253 0.012910308 -0.08894364 0.019866008 -0.060800225 -0.03311068 -0.025652314
0.027322853 -0.039115515 0.030028198 -0.026603213 0.046390183 0.048480693 -0.052639596 -0.020786788
-0.06770841 -0.064401515 0.03756943 -0.08412572 -0.059533805 -0.071584836 -0.088884436 -0.040865384
0.021243973 -0.062066793 0.037508294 0.00852631 -0.041776955 0.017688729 -0.0015783638 -0.054457244
-0.044005286 0.075377576 -0.07045183 0.006069395 0.0037877643 -0.08091497 0.08723789 -0.0807206
-0.0149991885 0.028230645 -0.06853231 0.07789945 0.009725173 0.07629068 0.04698158 0.08460704
-0.028694047 -0.018834423 -0.039109156 -0.049058463 -0.0119161345 -0.0074534398 -0.054234985 0.043055397
0.023156444 -0.07204416 -0.07592902 0.027740613 0.0050835246 0.018082887 0.06261735 -0.02974361
-0.07764765 0.03601693 -0.002334287 0.029106582 0.08463364 0.036986694 -0.030069312 -0.03197378
0.08714469 0.016612023 -0.050607372 -0.053898573 0.0148731265 0.019421738 -0.042605642 0.030062655
0.034675583 -0.055944555 0.029639052 -0.0830379 -0.04763771 -0.033635482 0.025958398 0.023365486
0.013490635 0.04860497 0.003204455 -0.02154963 -0.03497861 -0.019856961 -0.070342295 0.044626288
-0.0063707875 0.05608866 -0.038847584 0.058295406 0.060187846 -0.07135408 -0.003514766 0.06282837
0.040123455 -0.06310746 -0.05329299 0.05727817 -0.02786239 -0.081344984 0.04005999 -0.02381125
-0.063397095 -0.014345175 0.040155403 0.067796655 0.053630695 0.010082837 -0.027938109 -0.011499146
0.079285264 0.011018471 -0.06726784 0.050910283 -0.008706365 -0.04479318 -0.056082465 -0.07490198
0.12290366 -0.06303917 0.062337074 -0.10710656 0.014286324 -0.12914304 0.14239162 0.16516933
0.026911288 -0.0007522378 -0.051260762 -0.06997263 0.045051124 -0.044493265 -0.033952508 -0.10230185
0.10668202 -0.04337765 -0.058948282 0.06772187 0.101291515 -0.214476 -0.06278478 0.011415625
0.0233502 -0.0018856652 -0.027430305 0.07719127 0.08087038 0.07483499 0.004531511 0.052877788
-0.015205298 -0.03388312 0.077034935 -0.069526285 -0.052898236 0.15013167 0.07324292 0.0158278
0.107926875 -0.059752457 -0.00096077245 -0.017726572 0.01705541 -0.05982419 -0.0449608 -0.06050339
0.017451053 0.084371075 -0.01840689 -0.1923165 0.11382677 -0.042103358 0.005456835 -0.08239704
-0.038764462 -0.028282821 0.08716934 -0.04353232 -0.092791066 -0.04680026 -0.054552455 0.0001948499
0.14437188 -0.06129176 0.088912226 0.094943956 0.013808463 0.004054521 0.07283591 -0.05786758
-0.10641342 0.12798965 -0.055897944 0.00925122 -0.05877953 0.14717399 0.11256122 0.052343216
0.04639854 0.039874252 -0.014819222 0.011407634 -0.1327461 0.096321024 0.07167165 -0.10434909
-0.0886638 -0.03274196 0.11591121 0.07630259 -0.08346547 0.06677198 0.18061699 -0.036079317
0.04118982 0.048857525 -0.04883601 -0.13976113 -0.073939614 0.02679161 -0.075335495 -0.07383124
0.17618172 0.10695299 0.048190497 -0.04947975 -0.09306822 -0.07342974 0.09590357 0.111660376
0.07307852 -0.031003084 -0.045985077 0.027173437 -0.049360886 0.08667121 0.058648832 -0.11152743
-0.0056835357 0.14308168 0.015221193 -0.07184118 -0.08509603 -0.06446296 0.11689365 -0.050257336
00000000: 0e54 94bd 846a 533d c285 533c 1528 b6bd
00000010: 0abe a23c a809 79bd 109f 07bd cd24 d2bc
00000020: 2dd4 df3c 9737 20bd b2fd f53c fbee d9bc
00000030: a203 3e3d b193 463d 9e9c 57bd 0e49 aabc
00000040: b5aa 8abd f1e4 83bd 67e2 193d 1b4a acbd
00000050: b8d9 73bd 129b 92bd 0b09 b6bd 7662 27bd
00000060: d707 ae3c c039 7ebd 4ca2 193d f0b1 0b3c
00000070: 501e 2bbd f4e7 903c 1ae1 ceba 8f0e 5fbd
00000080: e33e 34bd 8f5f 9a3d 0d49 90bd c7e1 c63b
00000090: 243c 783b bfb6 a5bd c7a9 b23d d850 a5bd
000000a0: 28bf 75bc f443 e73c ab5a 8cbd bf89 9f3d
000000b0: 5556 1f3c 4a3e 9c3d c26f 403d 7546 ad3d
000000c0: c70f ebbc a64a 9abc ec30 20bd 87f1 48bd
000000d0: e43b 43bc fc3b f4bb 8125 5ebd db5a 303d
000000e0: 95b2 bd3c e38b 93bd ad80 9bbd 4840 e33c
000000f0: b293 a63b 9022 943c 863d 803d dfa8 f3bc
00000100: bb05 9fbd 7d86 133d d6fa 18bb ed70 ee3c
00000110: 6754 ad3d 5c7f 173d eb53 f6bc f0f6 02bd
00000120: ea78 b23d f015 883c ad49 4fbd c0c4 5cbd
00000130: 6aae 733c 561a 9f3c 4183 2ebd f545 f63c
00000140: fc07 0e3d 1e26 65bd 99cd f23c c60f aabd
00000150: c21f 43bd 5cc5 09bd b5a6 d43c fa68 bf3c
00000160: d307 5d3c 0116 473d d501 523b da88 b0bc
00000170: bb45 0fbd 11ab a2bc 9f0f 90bd 0eca 363d
00000180: 0ac2 d0bb 39bd 653d a51e 1fbd 2ac7 6e3d
00000190: 8887 763d 1722 92bd fd57 66bb 29ac 803d
000001a0: 7e58 243d 7c3e 81bd c049 5abd 849c 6a3d
000001b0: ab3f e4bc 3398 a6bd f215 243d d00f c3bc
000001c0: 56d6 81bd 0608 6bbc fe79 243d f9d8 8a3d
000001d0: dcab 5b3d 7c32 253c 76de e4bc ea66 3cbc
000001e0: 5060 a23d d186 343c b9c3 89bd 4d87 503d
000001f0: 24a5 0ebc 0e79 37bd bab6 65bd 3666 99bd
00000200: eab4 fb3d ae1a 81bd 2955 7f3d af5a dbbd
00000210: 3011 6a3c 133e 04be 1ccf 113e 2622 293e
00000220: 1075 dc3c d331 45ba cef6 51bd cf4d 8fbd
00000230: 8787 383d 923e 36bd c911 0bbd a283 d1bd
00000240: 1a7c da3d c3ac 31bd c173 71bd c4b1 8a3d
00000250: ed71 cf3d 999f 5bbe 4f95 80bd 9a08 3b3c
00000260: eb48 bf3c 6d28 f7ba 85b5 e0bc 7516 9e3d
00000270: 5f9f a53d 1643 993d 127d 943b 6196 583d
00000280: a41f 79bc 07c9 0abd 7ec4 9d3d cc63 8ebd
00000290: d2ab 58bd 1ebc 193e 6200 963d 4da9 813c
000002a0: c408 dd3d febe 74bd 59dc 7bba 5137 91bc
000002b0: cab7 8b3c 360a 75bd d128 38bd 67d2 77bd
000002c0: 83f5 8e3c beca ac3d 0cca 96bc 9eee 44be
000002d0: 021e e93d 9274 2cbd 40cf b23b c8bf a8bd
000002e0: 7cc7 1ebd 60b1 e7bc d785 b23d f24e 32bd
000002f0: 3e09 bebd a1b1 3fbd 6572 5fbd 9f50 4c39
00000300: 39d6 133e 120d 7bbd 9d17 b63d fa71 c23d
00000310: e43c 623c cadb 843b fe2a 953d 8e06 6dbd
00000320: 47ef d9bd b80f 033e 3ef5 64bd 6e92 173c
00000330: cec2 70bd c7b4 163e 7f86 e63d d765 563d
00000340: 650c 3e3d 2f53 233d 52cc 72bc 16e7 3a3c
00000350: 98ee 07be f543 c53d 96c8 923d fab4 d5bd
00000360: 5e95 b5bd 6f1c 06bd db62 ed3d 8844 9c3d
00000370: f2ef aabd bfbf 883d a9f3 383e e8c7 13bd
00000380: a8b6 283d d41e 483d 4508 48bd 8b1d 0fbe
00000390: a76d 97bd 147a db3c 7f49 9abd d534 97bd
000003a0: fb68 343e 2b0a db3d 6663 453d 47ab 4abd
000003b0: 8d9a bebd 5562 96bd 1769 c43d 32ae e43d
000003c0: 31aa 953d 2efa fdbc d95a 3cbd d49a de3c
000003d0: a42e 4abd ad80 b13d c239 703d 7e68 e4bd
000003e0: f43c babb 0184 123e 5062 793c 7821 93bd
000003f0: d446 aebd 2805 84bd f065 ef3d a3da 4dbd

bias f4 [64]
-0.042324614 -0.058899 0.096857265 0.13111125 -0.0216348 -0.04306524 0.019203568 0.024313865
-0.03907429 0.0423509 0.053174578 0.05756204 -0.028129812 0.05919623 0.04165113 -0.011916047
0.069977395 -0.044890262 -0.0024270003 -0.08258538 0.06205146 0.03075938 0.03978551 -0.06940175
-0.0064744772 0.070594564 0.091495216 -0.026303506 0.0731805 -0.009366474 0.07524976 0.105916895
-0.013222299 -0.013338424 -0.0736268 -0.08554054 -0.07283492 0.044987712 -0.06626602 0.06809475
0.051985458 0.0749352 -0.080697946 -0.016063541 -0.015567397 -0.012924131 0.11158829 0.040781334
0.04986781 -0.041336022 -0.034078702 -0.0560558 -0.029709805 0.018300101 0.12689522 -0.052786037
-0.016004646 0.11427018 -0.05501901 -0.050685287 0.027209034 0.0034861015 0.06036338 -0.030650351
00000000: 935c 2dbd 1440 71bd 1a5d c63d 0742 063e
00000010: 773b b1bc 2d65 30bd cd50 9d3c df2d c73c
00000020: 5d0c 20bd 2378 2d3d 96cd 593d 2cc6 6b3d
00000030: 7e70 e6bc bf77 723d 609a 2a3d 863b 43bc
00000040: 4f50 8f3d dade 37bd 4f0e 1fbb 8622 a9bd
00000050: ac29 7e3d 18fb fb3c 22f6 223d 8122 8ebd
00000060: da27 d4bb e293 903d d861 bb3d 737a d7bc
00000070: a8df 953d d775 19bc 8c1c 9a3d f5ea d83d
00000080: 57a2 58bc 6889 5abc a6c9 96bd e12f afbd
00000090: 792a 95bd 0945 383d 7bb6 87bd 4375 8b3d
000000a0: b4ee 543d a077 993d f744 a5bd b097 83bc
000000b0: 650e 7fbc bcbf 53bc 6788 e43d 540a 273d
000000c0: 3042 4c3d f64f 29bd 1c96 0bbd c49a 65bd
000000d0: fa61 f3bc 18ea 953c d2f0 013e 2c36 58bd
000000e0: 2d1c 83bc 7c06 ea3d 9d5b 61bd 609b 4fbd
000000f0: 7be5 de3c 1477 643b 973f 773d 7216 fbbc

weight f4 [10, 64]
-0.10268574 -0.13039611 -0.4201995 -0.5392996 0.09405977 0.12164406 0.12664321 -0.032740057
-0.31345734 0.123192705 -0.045061823 0.11965895 0.2103602 -0.011498805 -0.14987028 -0.008080162
-0.034990117 -0.07515048 0.08731074 0.14599055 -0.020229818 0.05711962 0.0026978927 -0.04954867
-0.14091499 -0.14500564 -0.21826255 -0.4545964 0.22826008 -0.08181182 -0.1796925 0.21055518
0.07891853 0.14817534 0.04409566 -0.062020328 0.15532993 -0.29104096 -0.022288414 0.21848123
-0.17010605 -0.07593658 -0.07017381 -0.053105123 0.17385113 -0.084242985 0.5717604 0.033661947
-0.097301446 0.43031546 -0.09366282 -0.007919284 0.2489712 -0.31028953 0.13172749 0.105708145
-0.20754446 0.17999071 0.40862557 -0.16444807 0.51498765 -0.33412126 -0.31323293 0.21462348
0.11729958 0.107078224 -0.57885003 0.07159538 0.3573841 0.10014119 -0.025334824 0.039608486
0.304779 0.24225989 -0.008372693 -0.24210456 0.07748791 -0.21735108 -0.07096475 -0.22167869
0.1171365 0.071112335 0.08931299 0.23461367 0.05255653 -0.07920456 0.07834582 -0.04206578
-0.0631978 0.16022715 -0.1354566 0.09992145 0.27784875 -0.033994064 0.29325488 -0.15914297
-0.22165114 -0.21320117 -0.060639236 0.34440172 0.5080995 0.11345416 0.16836718 0.21565829
0.12666059 0.12266478 0.015717514 0.06570936 -0.14832236 0.14211436 -0.5359677 -0.054583907
-0.028505463 -0.2774091 -0.012840437 0.12186753 0.03430026 0.28278917 -0.41247842 -0.31200418
0.12642409 0.11868424 0.012866121 -0.02308066 0.12711078 -0.21685988 0.5919637 -0.17094435
0.02642567 -0.24031115 -0.0642152 0.17561606 0.23650615 0.054371357 -0.04764978 -0.046730854
0.093719445 -0.06740932 0.29040268 -0.17112373 -0.33196408 -3.618581e-05 0.30532375 -0.26796252
-0.12064004 -0.5070559 -0.002187383 0.60511565 -0.17191833 0.1553833 -0.11772191 -0.0093093645
0.580048 0.5369572 -0.10225384 -0.1922959 -0.35857576 0.029385861 -0.30476347 0.22484718
0.32678792 0.40198112 -0.07270863 0.22789758 -0.38115686 0.23607412 -0.011365809 -0.07093339
-0.19571143 -0.4685484 0.13086689 -0.028674917 -0.0076413923 0.16429271 0.04260038 0.019328197
-0.08626776 -0.04406314 0.046789896 -0.2358589 0.15894972 0.30850667 0.07790279 0.34695914
0.12254101 -0.32455468 0.2808048 0.17428087 -0.012458346 0.05860157 0.3344598 0.17213261
-0.033358626 -0.084656976 0.029441226 0.22015955 0.10319305 0.16805425 -0.27153668 0.044469498
0.32619426 0.023062216 -0.34742624 -0.19572158 0.13415852 0.09857885 0.10887591 -0.070032224
0.16081549 0.417528 0.026461331 -0.21152213 0.30732054 0.09938369 -0.029190434 0.040340897
0.36958966 0.003319333 0.00090841006 0.12787718 -0.1159589 0.05211411 -0.06036129 0.16874574
0.5071093 0.32668024 0.0922371 -0.17912954 0.28036562 0.40488207 0.35237134 0.32978314
0.18169902 -0.11291052 0.06404265 -0.10475659 0.070576124 -0.20650499 -0.48913908 0.10164762
-0.085145615 0.043033868 0.015297461 -0.13367485 0.06205806 0.0005290481 0.46228737 -0.1448818
-0.26040488 -0.33454752 -0.5217557 0.08538659 -0.3213134 -0.42899188 -0.6214379 -0.25034928
00000000: e74c d2bd 8f86 05be 6424 d7be 8a0f 0abf
00000010: 69a2 c03d 8520 f93d c2ae 013e 701a 06bd
00000020: 7b7d a0be 754c fc3d bf92 38bd c00f f53d
00000030: aa68 573e 7c65 3cbc 9877 19be a862 04bc
00000040: cc51 0fbd 7fe8 99bd f9cf b23d 8c7e 153e
00000050: 01b9 a5bc 43f6 693d 21cf 303b 8cf3 4abd
00000060: 054c 10be 5c7c 14be 3880 5fbe dcc0 e8be
00000070: 03bd 693e f58c a7bd 5001 38be c79b 573e
00000080: 0aa0 a13d 47bb 173e a79d 343d 0709 7ebd
00000090: cf0e 1f3e 5203 95be 3196 b6bc 8bb9 5f3e
000000a0: 4830 2ebe a384 9bbd 49b7 8fbd c284 59bd
000000b0: 0806 323e 9687 acbd e45e 123f 1ce1 093d
000000c0: fb45 c7bd 4f52 dc3e 4bd2 bfbd e2bf 01bc
000000d0: 4ef2 7e3e 45de 9ebe 92e3 063e 837d d83d
000000e0: 8986 54be 7c4f 383e 5f37 d13e 1365 28be
000000f0: 3bd6 033f f111 abbe 1160 a0be 42c6 5b3e
00000100: c33a f03d d44b db3d 842f 14bf 99a0 923d
00000110: 0cfb b63e d316 cd3d fa8a cfbc 823c 223d
00000120: fe0b 9c3e fa12 783e 9f2d 09bc 42ea 77be
00000130: fbb1 9e3d 4891 5ebe f855 91bd bdff 62be
00000140: 43e5 ef3d 58a3 913d bbe9 b63d 913e 703e
00000150: 8445 573d 0036 a2bd c673 a03d 2b4d 2cbd
00000160: d96d 81bd 9612 243e 23b5 0abe 9ea3 cc3d
00000170: 3142 8e3e 5c3d 0bbd 8125 963e 60f6 22be
00000180: 84f8 62be 6851 5abe d960 78bd 6c55 b03e
00000190: cf12 023f a85a e83d 7268 2c3e 87d5 5c3e
000001a0: 50b3 013e ac37 fb3d 04c2 803c a192 863d
000001b0: d1e1 17be 6d86 113e 2e35 09bf 6093 5fbd
000001c0: 4a84 e9bc 9108 8ebe b260 52bc af95 f93d
000001d0: 6e7e 0c3d bec9 903e 5f30 d3be 03bf 9fbe
000001e0: 5175 013e b910 f33d 6ccc 523c a713 bdbc
000001f0: 5429 023e 8410 5ebe ef8a 173f 090c 2fbe
00000200: a67a d83c 2014 76be 4283 83bd b2d4 333e
00000210: ab2e 723e 80b4 5e3d 6a2c 43bd da68 3fbd
00000220: fbef bf3d e60d 8abd a9af 943e 0f3b 2fbe
00000230: 32f7 a9be 38c6 17b8 6553 9c3e 6232 89be
00000240: 2012 f7bd 6ace 01bf 325a 0fbb dce8 1a3f
00000250: 5c0b 30be cd1c 1f3e 2f18 f1bd 4e86 18bc
00000260: 077e 143f 0776 093f 766a d1bd 37e9 44be
00000270: 3e97 b7be 9eba f03c f509 9cbe 573e 663e
00000280: bf50 a73e 78d0 cd3e 43e8 94bd fc5d 693e
00000290: fe26 c3be 6abd 713e a837 3abc 8645 91bd
000002a0: 9468 48be 93e5 efbe f801 063e a9e7 eabc
000002b0: a564 fabb 593c 283e bc7d 2e3d 2b56 9e3c
000002c0: 27ad b0bd 8d7b 34bd c3a6 3f3d ff84 71be
000002d0: b7c3 223e 96f4 9d3e 7f8b 9f3d a1a4 b13e
000002e0: c8f6 fa3d 082c a6be a6c5 8f3e af76 323e
000002f0: 171e 4cbc 3308 703d 513e ab3e 8843 303e
00000300: 0ea3 08bd a360 adbd ba2e f13c 8171 613e
00000310: e156 d33d 6a16 2c3e db06 8bbe a625 363d
00000320: ef02 a73e f9ec bc3c dae1 b1be 3d6b 48be
00000330: da60 093e b5e3 c93d 55fa de3d 0e6d 8fbd
00000340: d1ac 243e 3bc6 d53e 6fc5 d83c 4299 58be
00000350: 1e59 9d3e ad89 cb3d c720 efbc 7f3c 253d
00000360: db3a bd3e 2b89 593b 5e22 6e3a 3cf2 023e
00000370: dc7b edbd 9b75 553d 663d 77bd afcb 2c3e
00000380: ead1 013f a242 a73e cee6 bc3d bc6d 37be
00000390: 158c 8f3e b44c cf3e 046a b43e 56d9 a83e
000003a0: 4f0f 3a3e a13d e7bd cb28 833d a08a d6bd
000003b0: 378a 903d 0b76 53be 7070 fabe a12c d03d
000003c0: d360 aebd 4844 303d 34a2 7a3c 0fe2 08be
000003d0: 9830 7e3d d1af 0a3a eeb0 ec3e e55b 14be
000003e0: ca53 85be d049 abbe c891 05bf 2adf ae3d
000003f0: 3183 a4be d3a4 dbbe 8e16 1fbf c82d 80be

bias f4 [10]
-0.0946777 0.06955545 -0.092586674 0.03884524 0.028087527 -0.06110952 -0.08735255 -0.113725424
0.12500815 0.026601573
00000000: 62e6 c1bd 1673 8e3d 159e bdbd 301c 1f3d
00000010: d017 e63c fa4d 7abd e5e5 b2bd e0e8 e8bd
00000020: 2302 003e 8beb d93c
