Pytorch/my_mnist_model.pt (torch_old, 212106 bytes, 4 tensors)

weight f4 [64, 784]
000000 8b 89 6b bd bf ed 30 bd 58 1d 8d bd eb b7 33 bd
       -0.057504218 -0.043195482 -0.068903625 -0.04387657
000010 ad eb 8a bd 2c e4 7a bd 67 c7 8d bd 25 70 8e bd
       -0.06783233 -0.061252758 -0.069227986 -0.069549836
000020 5c e9 fa bc a0 87 6b bd 2b ad 21 bd 8c f2 3f bd
       -0.030628853 -0.05750239 -0.039471786 -0.04686217
000030 ab ae f0 bc 81 76 e6 bc 1b d4 e2 bc 22 bc 92 bd
       -0.029380163 -0.028132679 -0.02768903 -0.0716479
000040 12 b3 57 bd 4f ba 82 bd 07 b1 22 bd dd 3b 81 bd
       -0.05266101 -0.06383192 -0.039719608 -0.06310246
000050 67 4d a9 bd 71 c4 d9 bc 4a e6 a2 bd 3b ff 83 bd
       -0.082667165 -0.026582928 -0.079540804 -0.06445166
000060 46 ff 97 bd 03 7e da bc bb 75 f8 bc 3c 9c a8 bd
       -0.074217364 -0.026671415 -0.030329576 -0.08232924
000070 6c 9d 4a bd 3b 4d 6e bd 01 e8 8e bd 8d 2c 95 bd
       -0.049466535 -0.05817912 -0.06977845 -0.07283888
000080 e2 b7 ae bd f0 9c 9e bd 52 e3 42 bd 0b 98 29 bd
       -0.085311666 -0.07744777 -0.04758007 -0.041404765
000090 7e e9 37 bd 5b c0 93 bd 8c 53 1c bd ea 4e 5f bd
       -0.04490041 -0.07214423 -0.038165614 -0.054518618
0000a0 8f 40 9b bd 18 f3 b2 bd 0d 7a a8 bd 8e d8 3c bd
       -0.07580673 -0.08737773 -0.08226404 -0.04610496
0000b0 75 00 3d bd 4c 38 39 bd 33 d3 b0 bd d5 4f 86 bd
       -0.046143014 -0.045219705 -0.08634033 -0.065581955
0000c0 04 22 8d bd 22 27 89 bd 12 8d c7 bd db c1 7d bd
       -0.068912536 -0.06696917 -0.09743704 -0.061952453
0000d0 7d da ba bd 28 00 78 bd b0 29 07 bd 2b 19 a8 bd
       -0.091237046 -0.060547024 -0.03299874 -0.082079254
0000e0 eb 8d 8a bd b6 14 b4 bd 1d c2 a9 bd 53 66 1a bd
       -0.0676535 -0.08793013 -0.08288977 -0.03769524
0000f0 06 cd 87 bd 48 3d ac bd 5c 3c 0d bd 78 26 8f bd
       -0.06630902 -0.08410126 -0.03448139 -0.06989759
000100 f0 84 21 bd b8 c8 99 bc e1 eb 9d 3c 60 ff 50 bd
       -0.03943342 -0.018772468 0.019277515 -0.051024795
000110 97 fc a0 bd 59 2b 8c bd f5 57 44 bd e6 ef bf bd
       -0.07860678 -0.068442054 -0.047935445 -0.09371929
000120 b2 c3 2f be 44 8b 00 be 06 e0 2b be 7e df 36 be
       -0.17164496 -0.12553126 -0.16784677 -0.17858693
000130 45 1e 3f be bf 38 28 be 7f 7e fc bd 22 de 7c bd
       -0.1866389 -0.16427897 -0.12328815 -0.06173528
000140 5b ea 66 bd 8e bb b8 bc 97 f1 bb bc 4e ca 2a bd
       -0.056375843 -0.02255037 -0.022942347 -0.04169684
000150 da ae 93 bd 16 5d 10 bd 71 8c 89 bd d9 d7 fd bc
       -0.07211085 -0.035245024 -0.0671624 -0.030986713
000160 53 d7 52 bd 4e 9f 85 bd 46 28 a1 bd 8c f8 78 bd
       -0.05147488 -0.065245256 -0.0786901 -0.060783908
000170 72 1d 1d bd 85 32 1a 3d 01 c3 01 3e 5c 9b fd 3d
       -0.03835816 0.037645835 0.12672044 0.12383148
000180 37 71 91 3c ed a8 9e 3d 01 d2 9b bc b2 b7 5b bb
       0.01775418 0.07747064 -0.019021036 -0.003352624
000190 a5 13 d1 3d 95 4d f4 bd d7 2f fc bd 0e af a2 3c
       0.10208825 -0.1192886 -0.12313812 0.019858863
0001a0 f5 1e ad bd 50 56 49 be 33 24 7d be 63 aa 40 be
       -0.0845317 -0.19661832 -0.2472084 -0.18814997
0001b0 ca fa 89 bd c8 9f b0 bd 62 c4 2a bd c8 4d 5d bd
       -0.06737287 -0.08624226 -0.04169119 -0.054029256
0001c0 2f 59 b7 bc 69 4d 73 bd 5b 81 95 bd 44 81 d1 bc
       -0.022381393 -0.059399996 -0.07300063 -0.025574334
0001d0 2d b6 92 bd 42 55 0c bc b5 c9 85 3c 25 a1 c1 3d
       -0.071636535 -0.008565249 0.016331533 0.09454564
0001e0 19 df 16 3e 6b 05 65 3e 12 4f 87 3e 44 fa 32 3e
       0.14733543 0.22365348 0.26427513 0.17478281
0001f0 29 6f 3b 3e a5 94 01 3e 39 be f9 3c 1e 61 8c 3e
       0.18304123 0.1265436 0.030486213 0.27417845
000200 54 36 4a 3e ab f0 36 bd 6b be 07 be 30 09 82 bc
       0.19747287 -0.044663113 -0.13256232 -0.015873522
000210 dc 6f 2b bd 26 88 09 be 85 94 75 be 70 2c 8d be
       -0.041854724 -0.13430843 -0.23982437 -0.27572966
000220 d7 ed 21 bd 28 de 4a bd 01 57 17 bd 37 10 8d bd
       -0.039533462 -0.04952827 -0.036948208 -0.06887858
000230 3a 4c 5e bd 60 46 20 bd 20 47 2a bd e0 7b 2c bd
       -0.054271914 -0.039129615 -0.041571736 -0.042110324
000240 bf cd a7 bc 70 85 b0 bc 09 aa a3 3d f3 21 3c 3e
       -0.02048385 -0.021548003 0.07991416 0.18372326
000250 b2 0a 87 3e a0 69 79 3e bd 48 86 3e d4 6e fe 3d
       0.26375347 0.24356699 0.2622737 0.124234825
000260 91 29 84 3d 86 06 d4 3d 66 83 cf 3d 99 a3 89 3d
       0.06453241 0.10352807 0.10132484 0.06720657
000270 60 5e 1c 3e f6 58 42 3d e8 cb dd 3d e4 cb f8 3b
       0.15270376 0.04744812 0.10829908 0.007592665
000280 58 1d 4e be 2c 60 43 be 20 6c e7 bc 2f 0f ee bc
       -0.20128381 -0.19079655 -0.0282498 -0.029059974
000290 fe 22 d6 bd 3c 7b 79 bd 54 1c a4 bd f5 33 a0 bd
       -0.10455893 -0.06090854 -0.08013216 -0.0782241
0002a0 b6 26 af bd 59 37 92 bd a6 53 b1 bd 92 f6 e7 bc
       -0.085523054 -0.07139463 -0.08658533 -0.028315816
0002b0 ab be 05 bd 18 27 61 3d 67 18 5a 3e 1d b8 c9 3e
       -0.03265254 0.054968923 0.21298371 0.3939828
0002c0 97 8f d9 3e c9 88 ff 3e 7f 58 9f 3e f7 b8 a2 3a
       0.42492363 0.49909046 0.31122205 0.0012414743
0002d0 dc 9b de bc c1 b5 96 3e 7d 5a 76 bd c7 98 0a 3d
       -0.027173929 0.29435542 -0.06014489 0.033837106
0002e0 6d 3f 6a 3e c5 b3 91 3d d6 43 48 be cd 9c 9b 3b
       0.22875758 0.071143664 -0.19557127 0.0047489167
0002f0 3d 79 f5 bd 37 32 57 bd cc 39 0b 3d 73 46 f1 ba
       -0.11986015 -0.052538123 0.033990666 -0.0018407836
000300 a4 b0 14 be c2 d6 3c be de 34 ca bd 2f 95 49 bd
       -0.14520508 -0.18441299 -0.09873365 -0.04921454
000310 1d 86 8d bd db 9c ba bc 29 b9 b8 bc 7e 9b 43 3b
       -0.06910346 -0.022779873 -0.022549229 0.002984732
000320 fd f1 ec 39 2b 59 6a 3d 0a 35 7e 3e 4a 1a a8 3e
       0.00045193723 0.057213943 0.2482492 0.32832557
000330 d7 d1 0c 3f 32 36 e0 3e e2 72 10 3e 19 0d a4 be
       0.5500769 0.43791348 0.14106324 -0.32041243
000340 d4 f1 6a be ca 1f 59 bb 35 8d ef bd 8f 4e af bd
       -0.22943813 -0.003313052 -0.11696855 -0.08559906
000350 03 44 83 3e dd 28 5e bc 85 49 ac bc e4 ad b0 bc
       0.25637826 -0.013559547 -0.02103115 -0.021567293
000360 59 41 62 be aa 6b e3 bd 9c 2e 2e bd da 9d 37 be
       -0.2209524 -0.1110452 -0.04252492 -0.1793131
000370 62 e9 f9 bd 7b f2 eb bd b3 71 af bd b7 48 92 bd
       -0.12202717 -0.11520859 -0.08566608 -0.071427755
000380 a6 06 14 bd 2b 23 b5 bd 7d 82 31 bd e0 9a 30 bd
       -0.036139153 -0.088445984 -0.043337334 -0.04311645
000390 68 b2 2e 3d 12 4b 8b 3d 15 aa ff 3d 41 fc 9d 3e
       0.04265061 0.06801428 0.124836124 0.30856517
0003a0 06 d4 0e 3f 1d 86 d2 3e d6 f3 f6 3d 79 92 b4 be
       0.5579227 0.41117945 0.12058227 -0.35268
0003b0 82 ba 7b be 2d d7 35 be 5d 58 83 3d 8e 51 91 3d
       -0.24582866 -0.17757864 0.06413338 0.070956334
0003c0 15 4c bf 3d 05 a9 40 3d 42 f5 19 be ec 4f c9 bd
       0.09340683 0.04703619 -0.15034965 -0.09829697
0003d0 f3 a1 3e 3d 15 47 42 be ba 67 9f bd 0b b5 63 be
       0.046541166 -0.18972428 -0.07783456 -0.22237031
0003e0 bc 48 b1 be 64 9b 24 be a2 d4 50 bd 7c e0 bf bd
       -0.34625804 -0.16074902 -0.050984032 -0.09368989
0003f0 ff 60 98 bd 41 2a 80 bd fb b7 9f bc 8e 2c 04 3c
       -0.074403755 -0.06258059 -0.019496908 0.008067263

bias f4 [64]
000000 e9 2c 92 3d 2b e0 98 3c 35 89 7a bd 94 3c 55 bb
       0.07137472 0.01866158 -0.061166007 -0.0032537328
000010 79 3c ed 3c 33 d0 1a 3d f9 80 17 bd 2c 0a 48 bd
       0.0289595 0.03779621 -0.036988232 -0.048837826
000020 70 15 5b 3d 88 bc dc bb a0 81 e9 bb 4e 91 78 3d
       0.05348724 -0.006736342 -0.007126048 0.06068545
000030 e0 39 32 3c 2a a9 12 bd 4e 5c 53 3d 5d 11 e0 bc
       0.010878056 -0.03580586 0.0516017 -0.02735203
000040 11 54 d8 bc 44 43 47 bd 95 58 35 3d 71 b1 44 3d
       -0.026407273 -0.048648134 0.04427393 0.048020784
000050 a7 14 82 bb 7b 58 0d 3d b2 f4 6f bc 3f 1d 23 bd
       -0.003969747 0.03450821 -0.014645742 -0.039822813
000060 00 61 d5 3c a4 e3 1f bd 6f e1 fe bb d2 15 6f 3c
       0.02604723 -0.039035454 -0.0077783386 0.014592605
000070 0e d5 af 3c 2a 8a 87 3d 09 ef 37 bc f9 f3 46 3c
       0.021463897 0.066181496 -0.011226424 0.012143129
000080 99 b6 79 3a e3 1c 2e 3d b0 c9 98 3d 13 8a e4 bc
       0.00095258054 0.042508017 0.07460344 -0.02789787
000090 dd 41 13 bd d9 af 0c bd 52 09 e1 3b 61 bc e9 bc
       -0.035951484 -0.03434739 0.006867566 -0.028532209
0000a0 c8 b8 39 bc cb 25 01 3d ac 30 c3 bc e5 1c d5 3b
       -0.011335559 0.031530183 -0.02382692 0.0065036886
0000b0 de 81 4b 3d 73 90 c2 3b a1 eb c5 bd ac 6b 7a bd
       0.049684398 0.00593763 -0.09664083 -0.06113784
0000c0 09 8e 9b 3c ab f3 bc 3c d3 78 08 3d a0 b0 6c bd
       0.018988626 0.023065409 0.033318352 -0.05778563
0000d0 c3 de 23 3d ab d4 0b bb e2 d0 a7 3b 32 4d 61 bd
       0.040007364 -0.0021336477 0.0051213363 -0.05500526
0000e0 a4 a2 e3 3c f8 8b 91 3b 06 f7 39 3d f8 c4 1a bc
       0.027787514 0.0044417344 0.045401596 -0.009446375
0000f0 a1 75 a1 bc d0 91 a5 3c d3 35 c5 3b 25 0d 27 3d
       -0.01970941 0.02021113 0.0060183792 0.04078402

weight f4 [10, 64]
000000 55 2b 98 3e a3 d9 18 40 8c 0e 32 bf eb 52 27 bc
       0.2972056 2.3882835 -0.69553447 -0.01021264
000010 48 93 1a c0 5a e5 93 3f 20 16 bf 3f 66 4b 99 bf
       -2.4152393 1.1554368 1.4928627 -1.1976135
000020 60 f6 ad bf c0 11 b0 be 00 a1 b9 3f 76 1c 0a 3f
       -1.3590813 -0.34388542 1.4502258 0.5394968
000030 c5 c9 25 bf cf d5 e7 bf 7b 93 be 3f ff ca c5 bf
       -0.64761 -1.8112124 1.4888757 -1.5452574
000040 85 1a 0b c0 5c e7 88 3f 6d 28 75 3e b9 a1 5f bf
       -2.1734936 1.0695605 0.23941202 -0.87356144
000050 96 31 2e 40 b5 d7 9c be 53 01 bf be a9 a7 a6 bf
       2.7217765 -0.3063332 -0.37305698 -1.3019916
000060 16 d8 a9 3f d3 bf f1 bd 1e 5e 5f 3f f8 a2 df 3f
       1.3269069 -0.11804166 0.87252986 1.7471609
000070 b7 dd a5 3f 77 a3 d4 3e a7 cb fd bf d6 c2 44 bf
       1.2958287 0.41530964 -1.9827775 -0.76859796
000080 30 30 2f 3f 21 1f da 3c 13 9a 91 bf b1 a3 d9 3e
       0.68432903 0.026626172 -1.1375145 0.425077
000090 9e 3c ae be 0b 7a 68 bf 23 e8 40 bf 44 e9 09 bf
       -0.34030622 -0.9081122 -0.7535421 -0.5387156
0000a0 51 81 65 bf 1b fe 5e bf 75 aa cc be fd cb 47 3f
       -0.89650446 -0.87106484 -0.39973798 0.78045636
0000b0 74 56 bb bf e0 44 45 3f b8 29 8a be da 18 b6 bf
       -1.4635758 0.7705822 -0.26984954 -1.4226334
0000c0 9e 3c 83 3f 0a 62 98 3f 4d 97 dd bf d8 9b c0 be
       1.0252874 1.1904919 -1.7311798 -0.376189
0000d0 24 0a bd be 6a 66 95 3f 90 17 94 3f fa 1e 14 c0
       -0.369218 1.1671879 1.1569691 -2.3143907
0000e0 55 5e 86 3f a3 80 ab bf 92 59 04 bd 93 75 72 bf
       1.0497538 -1.3398632 -0.032311983 -0.94710654
0000f0 ca 95 10 3f f9 cb 20 bf 42 b3 85 bf de c9 b1 3e
       0.5647856 -0.6281124 -1.044533 0.34724325
000100 fa 86 3f bf 72 a0 16 3f 7e 5b 3a 3f 5a cb 8d be
       -0.7481533 0.5883857 0.72795856 -0.27694207
000110 6a 71 de 3f ca 9c 43 be 38 70 8a 3f a5 f3 d4 3f
       1.7378361 -0.19102779 1.0815496 1.6636854
000120 2b b0 d3 bf ae 08 07 c0 c2 72 b0 bf e1 9c 65 be
       -1.6538137 -2.1099048 -1.3785021 -0.22423126
000130 d0 81 7b 3f 63 7c 75 3f 2d 43 4d bf c0 09 ca bf
       0.98244953 0.95892924 -0.8018063 -1.5784225
000140 fb 56 9f 3f 2f 75 83 3d f3 80 06 c0 b9 73 b4 3f
       1.2448419 0.06418835 -2.1016204 1.4097816
000150 3d b7 74 bf 93 eb ff be f0 0d a9 3f 7c c0 45 3f
       -0.955921 -0.49984416 1.3207378 0.7724683
000160 f9 32 95 3f 89 2b 04 40 14 0e eb be 39 3a 79 3e
       1.1656181 2.0651572 -0.45909178 0.24338616
000170 b8 0b 05 3f ed b8 0d c0 0b 1c dd be 7d 98 d3 3f
       0.51971006 -2.214412 -0.43185458 1.6530911
000180 ca dc 42 be c1 f1 23 3f de bd 23 3f a4 00 57 bf
       -0.19029537 0.6404076 0.6396159 -0.8398535
000190 53 d9 08 3f 51 56 94 be 58 94 35 3d bf 7d dc 3d
       0.5345661 -0.28972104 0.044330925 0.10766172
0001a0 9d 77 13 40 dd cb 79 3f bb 23 e1 3f 2f a4 ee be
       2.3041756 0.97576696 1.7589029 -0.46609637
0001b0 04 c7 75 3f ef 27 b8 bf 7c a3 d4 3f a6 7a 0d 3d
       0.960068 -1.4387187 1.6612391 0.034540795
0001c0 6a 3a bd 3d 8f 91 b8 bf c6 ae f3 3e 95 b3 25 40
       0.09239657 -1.4419421 0.4759428 2.5890858
0001d0 c4 dc 67 bf 1e 90 42 3f 14 57 b3 3f 18 ce 7a 3f
       -0.90571237 0.76001155 1.4010949 0.97970724
0001e0 28 b1 17 3f 00 3e d2 3f 3d 66 87 be 36 f5 c2 be
       0.59254694 1.6425171 -0.2644519 -0.38077706
0001f0 5e 0a 75 bd d6 4b fc bf 9a 93 6a 3f fa 05 05 c0
       -0.05982434 -1.9710643 0.9163147 -2.0784898
000200 be 0a d9 3f 9a 6b 06 c0 b5 5e 29 40 5b 90 07 bf
       1.6956403 -2.1003175 2.6464055 -0.52954644
000210 a5 a7 5a bf 00 f8 dc bf 91 5e e3 3f 12 62 b2 3e
       -0.85412055 -1.7263184 1.7763234 0.34840447
000220 2a 18 d4 3f 89 22 ff 3e 87 17 26 3e 59 92 07 c0
       1.6569874 0.49831036 0.16219912 -2.1183074
000230 e6 7e f1 bf 81 20 58 bf 89 56 cc 3f 49 9d b8 3d
       -1.8866851 -0.844246 1.5963908 0.09014375
000240 66 60 27 40 13 c3 96 3f 46 76 05 c0 32 59 25 c0
       2.6152587 1.1778282 -2.0853438 -2.583569
000250 33 9e 2c bf 21 c8 db be a8 a5 b4 3e 5f ed 3f 40
       -0.6742889 -0.42926124 0.35282636 2.998863
000260 54 73 e1 3e 9d be 08 3e 62 a3 0c c0 76 62 dd 3f
       0.440333 0.13353963 -2.197472 1.7295673
000270 36 fe 7e bf 05 93 c9 3e f9 d7 9f bf e0 ee 46 3f
       -0.99606645 0.3936998 -1.2487785 0.77708244
000280 f8 10 96 3f ef 38 85 40 68 e4 46 3e e9 19 86 be
       1.1723928 4.1632 0.19423068 -0.26191643
000290 af 8c 17 bf 8c 76 8c 3f 43 43 63 3f 53 17 f9 bf
       -0.5919904 1.0973678 0.8877451 -1.9460243
0002a0 27 54 64 3f ae 62 a6 bf 97 fb c2 bf e2 3e 0d 3f
       0.89190906 -1.2998865 -1.5233029 0.55174077
0002b0 ff 17 0f 3f c6 79 50 3f 74 6d 86 bf dc 9d d9 bf
       0.5589599 0.8143581 -1.0502152 -1.70013
0002c0 78 a5 f1 3f 08 39 dc 3e 66 2c 44 bf d4 dd 3e 3f
       1.8878622 0.4301226 -0.76630247 0.7455723
0002d0 be 32 a6 3e 01 ff 6d c0 a5 0b e3 3f 0a f4 10 c0
       0.32460588 -3.7186892 1.7737929 -2.264895
0002e0 3e a2 23 40 51 34 d2 3f a1 fd 4e 3e 28 75 15 40
       2.5567775 1.6422216 0.20213939 2.3352757
0002f0 73 2b 68 3f 55 0b f5 3f 9e 7f c2 3e 22 86 76 bf
       0.906913 1.9144083 0.3798799 -0.9629842
000300 e3 10 52 40 b8 f5 33 bf ad cd 18 c0 98 91 5d 3f
       3.2822807 -0.7029681 -2.3875535 0.86550283
000310 2f c7 35 bf fa 23 13 40 27 1d 6c 3f bb 5a 41 3f
       -0.71007055 2.2990708 0.9223198 0.7552907
000320 50 4c 25 40 3a 2e 63 be fc 24 19 c0 d1 bf 88 3f
       2.5827827 -0.22185603 -2.3928823 1.0683538
000330 90 1b 23 c0 17 95 00 40 50 b9 23 c0 6a 0c 8f bf
       -2.5485573 2.0090997 -2.5581856 -1.1175663
000340 3d 62 82 bf eb 5d 10 c0 78 3d bf 3f 73 82 c8 3f
       -1.018623 -2.2557323 1.4940634 1.566481
000350 b6 e3 7e be 7e 7b f4 3e cc 5c 85 3f 94 8f ab 3f
       -0.24891552 0.47750467 1.0418944 1.3403192
000360 76 49 4a bf b9 94 97 3d 56 e0 c4 bf d6 b8 0d c0
       -0.7901834 0.074014135 -1.5380962 -2.2144065
000370 e8 a2 c0 bf 21 a8 c0 3f fb aa 6a 3f 98 20 74 bf
       -1.5049715 1.5051309 0.91667145 -0.95362234
000380 b5 60 ba 3f 2a 0c 3d bf 6a 08 ef 3f 92 e7 0b bf
       1.4560763 -0.73846686 1.8674443 -0.54650223
000390 ae b9 23 bf ee 64 9c be 93 d3 8b 3f f6 c2 23 3f
       -0.639552 -0.30545753 1.0923942 0.6396936
0003a0 52 9f 0b 40 84 96 3d 3f 93 6a 21 3f 61 54 17 c0
       2.1815991 0.74057794 0.63053244 -2.364525
0003b0 16 0f cf be 17 c6 c0 bf db 23 85 bf c6 cf 06 40
       -0.40441197 -1.5060452 -1.0401567 2.1064315
0003c0 e1 c9 c5 3f dd 42 0b 3d 70 06 94 bf d8 36 47 bf
       1.5452234 0.033999313 -1.1564465 -0.7781806
0003d0 f6 c0 4d 3f 23 1f 0b c0 a3 55 d0 bf c8 a2 7f 3f
       0.8037256 -2.1737754 -1.6276134 0.9985776
0003e0 99 d8 0e 3f 64 08 f8 bf 69 4e af be c1 c5 32 40
       0.5579925 -1.9377561 -0.3423951 2.79332
0003f0 f9 8a 39 bf f2 aa 30 bf c8 93 2b be 32 9c b7 3f
       -0.7247768 -0.6901084 -0.16755593 1.4344542

bias f4 [10]
000000 b2 47 b3 bd 91 4d 6d 3e f7 35 3c 3e ad be 63 3e
       -0.08753909 0.2317412 0.18379961 0.22240706
000010 af 35 b9 bd e1 34 83 3d ee 28 04 be fa 35 bc 3e
       -0.090434425 0.0640657 -0.12906238 0.3675993
000020 34 00 21 bf 0f 74 85 be
       -0.62890935 -0.26065108
